profile/Default/optimization_guide_prediction_model_downloads/bbd8dde1-8ba5-40f1-be89-8ce60fa97038/model.tflite (tflite, 410376 bytes, 166 tensors)

context_transformer_0/bottleneck_input/norm/add f4 [32]
0	0xbd50a15b	-0.05093513
1	0xbd710ced	-0.058850218
2	0x3d03dbcd	0.03219204
3	0xbe5777bd	-0.2104177
4	0xbd3eb68e	-0.046560816
5	0x3b4fa0d1	0.0031681547
6	0xbb7a7674	-0.0038217576
7	0xbc8be1e2	-0.017075483
8	0xbe32b5da	-0.17452183
9	0x3d0f6f48	0.035018235
10	0x3cf02234	0.029313184
11	0x3dff4d66	0.124659345
12	0x3c9648d6	0.018345278
13	0x3d681a6a	0.056665815
14	0xbcef2aaf	-0.029195158
15	0xbd3d6684	-0.046240345
16	0xbdbdb89c	-0.09263727
17	0x3d1d7e56	0.03845056
18	0xbd00fc50	-0.031490624
19	0xbd86abd8	-0.06575745
20	0xbd0a39c2	-0.03374649
21	0x3b13e1f8	0.0022565108
22	0x3cd1b6a0	0.025599778
23	0x3ce6c1f7	0.028168662
24	0xbd1a414c	-0.03765993
25	0xbd89c901	-0.067277916
26	0xbd0f212c	-0.034943745
27	0x3da58602	0.080822006
28	0x3d0535ad	0.032521892
29	0xbda80e66	-0.08205871
30	0xbd88651a	-0.066599086
31	0xbd4cb20c	-0.049974486

context_transformer_1/bottleneck_input/norm/add f4 [32]
0	0xbd186451	-0.037205044
1	0x3de67be0	0.11254096
2	0xbd5f1418	-0.054462522
3	0xbdc85d01	-0.09783364
4	0x3e0d8e6d	0.13823862
5	0xbc833d0a	-0.016020317
6	0x3dfc7e88	0.123288214
7	0x3d91f512	0.071268216
8	0xbdae8b6a	-0.08522685
9	0xbdec5b84	-0.11540893
10	0xbe42775b	-0.18990843
11	0xbc5a4ad4	-0.0133235045
12	0x3c8c345e	0.017114814
13	0x3e2b9fea	0.16760221
14	0xbb7138d5	-0.0036807556
15	0x3c43955a	0.011937464
16	0x3cb51e2f	0.02210912
17	0x3d90b9a2	0.07066657
18	0x3da5d7ce	0.08097802
19	0xbdb9a504	-0.09064677
20	0xbd3d5762	-0.046225913
21	0x3d5dbc09	0.054134402
22	0x3d0892ce	0.03334313
23	0x3eaaf83a	0.33392507
24	0x3e8e2399	0.27761534
25	0x3d64abf6	0.055828057
26	0x3e9c5f9e	0.305417
27	0xbd17f499	-0.0370985
28	0x3d794658	0.0608581
29	0xbd9088e2	-0.07057358
30	0x3df5c391	0.12000192
31	0x3e0f26fd	0.13979717

mention_transformer_0/bottleneck_input/norm/add f4 [32]
0	0xbd449598	-0.047994226
1	0xbe87612d	-0.26441327
2	0x3e08d0e6	0.13360938
3	0x3ca3d3f0	0.01999852
4	0x3c67f0dc	0.014156546
5	0xbba86430	-0.0051388964
6	0xbd445f74	-0.047942594
7	0x3e738298	0.23780286
8	0x3d91421c	0.070926875
9	0x3c2eb707	0.010663754
10	0x3e1a256b	0.15053336
11	0x3cdd62bc	0.02702462
12	0x3d4c8cd5	0.049938995
13	0xbcc39e32	-0.023879144
14	0x3dbfe00c	0.093689054
15	0xbd148598	-0.036260217
16	0x3ce76fd8	0.028251573
17	0xba86d748	-0.0010287547
18	0x3e20908a	0.15680137
19	0xbd770abc	-0.06031297
20	0xbd5bba45	-0.053644437
21	0x3cc1917a	0.023628939
22	0x3d658d62	0.056043036
23	0xbd77195e	-0.060326926
24	0xbdb9176a	-0.09037669
25	0xbe89786b	-0.26849684
26	0xbdad9b94	-0.0847694
27	0x3daa3c5a	0.083122924
28	0x3eb9cb76	0.3628804
29	0xbdcd2312	-0.10016455
30	0xbceb932a	-0.028756697
31	0xbd8fd691	-0.07023347

mention_transformer_1/bottleneck_input/norm/add f4 [32]
0	0x3c9cff6c	0.019164763
1	0x3e4bf8db	0.1991915
2	0x3dec0e1c	0.11526129
3	0x3cfffcd3	0.031248486
4	0xbe7d1412	-0.24714687
5	0xbd83ae1c	-0.06429693
6	0xbc81f24e	-0.01586261
7	0xbc1ed6e9	-0.009694793
8	0x3e5fe063	0.2186294
9	0x3e3a4a51	0.18192412
10	0xbd3b9f28	-0.04580608
11	0x3d6c985e	0.057762496
12	0x3e23bdfc	0.15990442
13	0xbe501cfc	-0.20323557
14	0x3e01b503	0.12666707
15	0x3ee544e8	0.44779134
16	0x3e8adb32	0.27120358
17	0xbdd6e1a7	-0.104922585
18	0x3d885a15	0.06657807
19	0xbe8c2760	-0.2737379
20	0x3d92306d	0.07138143
21	0xbe81f63f	-0.25383183
22	0xbd26408c	-0.0405889
23	0x3e976aa8	0.2957356
24	0xbdd56fb2	-0.10421695
25	0xbe8d9d12	-0.27658898
26	0xbe3f9f96	-0.18713221
27	0xbe6a0cee	-0.22856495
28	0xbe6ac64d	-0.22927208
29	0x3e872080	0.26391983
30	0xbe23dc68	-0.16002047
31	0xbe32db65	-0.17466505

context_transformer_0/attention/value/add;context_transformer_0/attention/value/einsum/Einsum;context_transformer_0/attention/value/add/ReadVariableOp/resource f4 [32]
0	0x3c7aeca6	0.01531521
1	0x3ac255bd	0.0014826577
2	0x3dbf4cd2	0.09340824
3	0xbd0779ae	-0.033075027
4	0xbc4c6e4d	-0.01247747
5	0x3cfff69a	0.031245518
6	0x3d86dde3	0.0658529
7	0xbd253a00	-0.040338516
8	0x3ce07f09	0.027404325
9	0xbb2f80df	-0.0026779694
10	0xbd5b344e	-0.05351668
11	0xbc46ffb2	-0.012145923
12	0xbca88fe8	-0.020576432
13	0xbd43e8e3	-0.04782952
14	0xbd2ea9d2	-0.042642422
15	0x3d1b0eb6	0.037855826
16	0x3c8f4b95	0.017492095
17	0x3d958ff8	0.073028505
18	0x3e0b92bb	0.13630192
19	0x3cc1f5da	0.023676801
20	0x3c1eb29d	0.009686139
21	0xbd005159	-0.03132758
22	0x3d924f0e	0.07143985
23	0x3cd0e146	0.025498044
24	0xbd88352e	-0.06650768
25	0x3d4745c2	0.04865051
26	0xbca42abe	-0.020039912
27	0x3d0f8af4	0.035044625
28	0x3d47753a	0.04869578
29	0xbd90f704	-0.070783645
30	0x3ce215ee	0.027598348
31	0xbc815b84	-0.015790708

context_transformer_0/bottleneck_input/norm/mul f4 [32, 32]
0	0xbda4ff25	-0.080564775
1	0xbe560c01	-0.20903017
2	0xbe23770a	-0.15963379
3	0xbe44e63a	-0.1922845
4	0x3d302176	0.04300066
5	0x3dadfdb8	0.08495659
6	0xbc698569	-0.014252999
7	0xbdbf20fa	-0.09332462
8	0xbe032af0	-0.12809348
9	0xbe4f0ab0	-0.2021892
10	0x3e1b575a	0.1517004
11	0x3c25076c	0.01007257
12	0x3dc8b260	0.09799647
13	0x3e7e26d2	0.24819496
14	0xbd874478	-0.06604856
15	0xbe8b7ea9	-0.27245072
16	0x3d3bbdcb	0.045835298
17	0x3e87902a	0.26477176
18	0x3dc0a54f	0.0940653
19	0x3e09b175	0.134466
20	0x3dab63bc	0.08368632
21	0xbe5ef9d1	-0.21774985
22	0xbe23e223	-0.16004233
23	0xbda87999	-0.08226318
24	0x3eba51cb	0.36390528
25	0xbc9a9b6d	-0.01887294
26	0xbe90e323	-0.28298292
27	0xbac59086	-0.0015072979
28	0xbf0dc7a7	-0.5538277
29	0xbddd1d4a	-0.10796602
30	0x3d476f81	0.048690323
31	0x3c4ef1d9	0.012630903
32	0x3e08722d	0.13324805
33	0x3df7e2d0	0.12103808
34	0xbdbbc096	-0.09167592
35	0x3d944cf6	0.07241242
36	0xbc7959c2	-0.015219154
37	0x3d0fd0ef	0.035111364
38	0xbe66afd6	-0.22528014
39	0x3dad3d92	0.08459009
40	0xbd928b39	-0.07155461
41	0x3c243a18	0.010023616
42	0xbe1e743c	-0.15474027
43	0xbd4364a8	-0.047703415
44	0x3e6b879c	0.2300095
45	0x3e21c996	0.15799555
46	0x3df43bdf	0.11925482
47	0x3d529635	0.05141278
48	0xbde9eec8	-0.11422497
49	0x3e4e86a9	0.20168556
50	0xbcd53312	-0.026025329
51	0x3e0888be	0.13333413
52	0x3d0de78a	0.03464464
53	0x3e9820d7	0.29712555
54	0xbd293872	-0.041313596
55	0xbd07353a	-0.033009745
56	0x3dc37c96	0.09545247
57	0xbe038a18	-0.12845647
58	0xbdc8c872	-0.09803857
59	0x3d228576	0.03967806
60	0xbe80dc80	-0.25168228
61	0xbd033a80	-0.03203821
62	0xbb529ce9	-0.0032136983
63	0x3ea830b2	0.32849652
64	0x3e962829	0.29327515
65	0x3d8a9932	0.06767501
66	0xbdbb5466	-0.09146957
67	0xbca2b253	-0.019860422
68	0xbd2660b2	-0.04061956
69	0x3d0c341d	0.034229387
70	0x3e903c10	0.28170824
71	0xbdecbd2e	-0.11559521
72	0x3e35ca7c	0.17753023
73	0xbe3fdff8	-0.18737781
74	0x3e8538a5	0.2601978
75	0xbe57e73f	-0.21084307
76	0xbe55f15f	-0.20892857
77	0x3e16701f	0.14691208
78	0x3e3bbb24	0.18333107
79	0xbe2a90eb	-0.16656844
80	0x3ee5e723	0.44902906
81	0x3d967908	0.07347304
82	0x3cdcff78	0.026977286
83	0x3ec02f16	0.37535924
84	0x3d99821d	0.0749552
85	0xbd4de350	-0.05026561
86	0x3e6e2334	0.23255616
87	0x3da447ca	0.08021505
88	0x3bf9ec88	0.0076270737
89	0x3e90fd8c	0.2831844
90	0xbe326cb7	-0.17424284
91	0xbdf445c3	-0.119273685
92	0xbe1abbe2	-0.15110734
93	0xbc1d47d0	-0.009599641
94	0x3de6ee95	0.11275975
95	0xbdebb091	-0.11508287
96	0x3dfe531e	0.12418197
97	0x3e5addb4	0.21373636
98	0xbef5ea9d	-0.48030558
99	0x3e9862d9	0.29762915
100	0x3e026a03	0.12735753
101	0x3de4a34f	0.11163961
102	0x3dc4aecd	0.09603653
103	0x3e2d52f2	0.16926172
104	0x3c9aa72a	0.018878538
105	0xbd1842b3	-0.037172984
106	0xbe265978	-0.16245067
107	0x3e2f7df8	0.17137897
108	0x3cf7d150	0.030251175
109	0xbddf86b3	-0.10914364
110	0xbe91a85b	-0.28448758
111	0xbe250ad2	-0.16117409
112	0x3e9cc252	0.30617005
113	0x3dea4af6	0.11440079
114	0x3d0e9ddf	0.034818526
115	0xbcef9072	-0.029243682
116	0x3e5a4836	0.21316609
117	0x3d08f257	0.03343424
118	0x3d97568a	0.07389553
119	0xbe8ce06d	-0.27514973
120	0x3dbcb2b3	0.09213772
121	0x3d49dada	0.04928098
122	0xbe6add5d	-0.22936006
123	0xbd151c4d	-0.036403943
124	0xbe709c8e	-0.23497221
125	0x3e8032a5	0.2503864
126	0x3e40ed90	0.18840623
127	0xbe6eb051	-0.23309447
128	0x3f2bcbd9	0.6710792
129	0xbe4ba992	-0.19888905
130	0x3df65f86	0.120299384
131	0x3d2b19fe	0.041772835
132	0x3e722e48	0.23650467
133	0x3ebccf43	0.36876878
134	0xbde5da16	-0.11223237
135	0x3df5ab3a	0.119955495
136	0x3caa4639	0.020785438
137	0xbee902ea	-0.45510036
138	0x3da21899	0.07914848
139	0xbe7a1c2e	-0.24424812
140	0xbe126306	-0.14295587
141	0xbde933d0	-0.113868356
142	0x3dbb0af7	0.09132951
143	0xbf1ac63d	-0.6045874
144	0xbe4914fb	-0.1963691
145	0x3e8bc839	0.27301195
146	0xbe52ba68	-0.20578921
147	0xbdf1453c	-0.117807835
148	0x3e2b25c7	0.1671363
149	0x3e6c63e7	0.23084985
150	0x3e2812a4	0.16413361
151	0xbdccf9e1	-0.10008598
152	0xbd093bfa	-0.033504464
153	0xbeef76d8	-0.46770358
154	0x3e513116	0.20428881
155	0xbd024ce7	-0.03181162
156	0xbe69cd84	-0.22832304
157	0xbe4ca3ab	-0.1998431
158	0xbe4d5270	-0.20050979
159	0x3d7c059a	0.06152878
160	0x3e515663	0.2044311
161	0xbd598881	-0.053108696
162	0xbc135cb3	-0.008994269
163	0xbe1cef3f	-0.1532564
164	0x3cd56531	0.026049228
165	0xbf237630	-0.63852215
166	0x3e1cb525	0.15303476
167	0xbef9277e	-0.48662943
168	0x3e7fa9d9	0.24967135
169	0x3e7fe1cf	0.24988483
170	0x3e7a51ca	0.24445263
171	0xbdc9fa31	-0.09862173
172	0xbd48517a	-0.048905827
173	0x3e62aced	0.22136278
174	0x3da53585	0.08066849
175	0x3e28359e	0.16426703
176	0xbe8e019f	-0.27735612
177	0x3e22a376	0.15882668
178	0xbe1e627f	-0.15467261
179	0x3ed911dc	0.42396438
180	0x3cb93698	0.02260904
181	0x3eaa64f0	0.33280134
182	0x3cda3ae2	0.026639406
183	0xbd6127c5	-0.054969568
184	0x3db1f029	0.08688385
185	0xbe16d85c	-0.14730972
186	0xbef102df	-0.47072503
187	0xbe293709	-0.165249
188	0xbe40f638	-0.18843925
189	0x3da45528	0.08024055
190	0x3ea0b54d	0.31388322
191	0xbdd1c3fe	-0.10242461
192	0x3da3012b	0.07959207
193	0x3e51b550	0.20479321
194	0x3d52f041	0.051498655
195	0xbe208071	-0.15673997
196	0xbd8d31ce	-0.06894265
197	0xbccbc6b8	-0.02487503
198	0xbe25d5cf	-0.16194843
199	0xbc9ee3c2	-0.019395713
200	0x3d9373f6	0.07199852
201	0xbe87524d	-0.26429978
202	0xbcacc4f3	-0.021090006
203	0xbd5375c9	-0.051626
204	0xbc8e322a	-0.017357904
205	0xbcd10cdb	-0.025518825
206	0x3de37111	0.1110555
207	0x3d9c2fa4	0.07626274
208	0x3d4ee40b	0.050510447
209	0x3cd2af1f	0.02571827
210	0x3de201e6	0.11035518
211	0xbcbd32cd	-0.023095513
212	0xbdccd54f	-0.10001623
213	0xbc3552b7	-0.011067084
214	0x3e1b60c4	0.15173632
215	0xbd6ba80c	-0.05753331
216	0x3c979da5	0.018507788
217	0x3c4b7e65	0.0124202715
218	0x3cbdab4d	0.023152972
219	0xbd21c940	-0.039498568
220	0xbd1e7f72	-0.03869576
221	0x3c83884c	0.016056202
222	0x3dfb7595	0.12278286
223	0x3dcc3e84	0.099728614
224	0x3e84944a	0.25894386
225	0x3e45a679	0.19301786
226	0xbde3e325	-0.11127309
227	0xbe8aeb72	-0.27132756
228	0xbe4601c0	-0.19336605
229	0x3eb4d4f8	0.35318732
230	0x3d79de4e	0.061003022
231	0xbd0e335a	-0.03471694
232	0xbe32fc65	-0.17479093
233	0x3e90aa3f	0.28254887
234	0xbf24a56c	-0.64314914
235	0x3dede9e8	0.1161688
236	0x3d66e28e	0.056368403
237	0x3efdb8e5	0.49555126
238	0xbe1ed33e	-0.1551027
239	0x3f17f80c	0.59362864
240	0xbdee8e07	-0.11648183
241	0xbe63f9a3	-0.22263198
242	0x3dcc2b6e	0.09969221
243	0xbcc88d97	-0.024481578
244	0xbd4ffbcf	-0.050777253
245	0x3da2c569	0.07947809
246	0x3e3058eb	0.1722142
247	0xbdfd152b	-0.12357553
248	0xbd9c670b	-0.076368414
249	0x3e2c6040	0.16833591
250	0x3dd2526e	0.102696285
251	0xbe476039	-0.194703
252	0x3e718dc2	0.23589233
253	0xbea2be98	-0.31786036
254	0xbe76b84d	-0.24093743
255	0x3d9ede1d	0.077572085

context_transformer_0/kq_shared_bottleneck/norm/mul;context_transformer_0/kq_shared_bottleneck/norm/add;context_transformer_0/attention/key/einsum/Einsum;context_transformer_0/attention/key/add;context_transformer_0/attention/value/einsum/Einsum;context_transformer_0/attention/key/add/ReadVariableOp/resource f4 [32]
0	0x3eca747a	0.3954199
1	0x3e87eb5e	0.26546758
2	0x3e90ab8a	0.28255874
3	0x3e8d0669	0.27543953
4	0xbea6df9a	-0.3259247
5	0x3e94b451	0.2904382
6	0x3e99ccab	0.30038962
7	0xbd327870	-0.04357189
8	0x3dfeac75	0.12435237
9	0x3b5f797a	0.0034099505
10	0xbd7cd347	-0.061724927
11	0x3da93f1d	0.08263991
12	0x3ea0a34f	0.31374595
13	0xbca05b7e	-0.019574877
14	0x3e251b34	0.16123658
15	0xbe14c3e2	-0.14527848
16	0xbd96a143	-0.07354977
17	0xbe4b3660	-0.19844961
18	0xbe0a537f	-0.13508414
19	0xbe1044c4	-0.14088732
20	0x3d35b3dd	0.044360984
21	0x3c8d36e6	0.017238092
22	0x3e65843f	0.22413729
23	0x3eb464b1	0.3523307
24	0xbe2324f3	-0.15932064
25	0xbd393d64	-0.045224562
26	0xbdb4f585	-0.08835892
27	0xbdb0e43c	-0.08637282
28	0x38ed6aea	0.00011320955
29	0xbe27f9ee	-0.16403934
30	0xbe5d8aa9	-0.21634926
31	0xbe5067e2	-0.20352128

context_transformer_0/kq_shared_bottleneck/norm/mul;context_transformer_0/kq_shared_bottleneck/norm/add;context_transformer_0/attention/key/einsum/Einsum;context_transformer_0/attention/key/add;context_transformer_0/attention/value/einsum/Einsum;context_transformer_0/attention/key/add/ReadVariableOp/resource1 f4 [32, 32]
0	0xbe0ad662	-0.13558343
1	0x3e4fe674	0.20302755
2	0xbdb43a31	-0.08800162
3	0xbe4ac4ac	-0.19801587
4	0xbe84d567	-0.25944063
5	0x3e657cef	0.2241094
6	0xbe74b130	-0.23895717
7	0xbcaa0186	-0.02075268
8	0x3eaf6582	0.34257132
9	0x3e35a4a7	0.17738591
10	0x3e49870f	0.19680427
11	0x3dd5f1e7	0.1044653
12	0xbd6ccf58	-0.057814926
13	0xbe856f86	-0.26061648
14	0xbe57494b	-0.21024053
15	0x3d159529	0.036519203
16	0x3e935483	0.28775415
17	0x3e467207	0.19379435
18	0x3dcb97aa	0.09941037
19	0xbe512fca	-0.20428386
20	0x3e088208	0.13330853
21	0xbea05444	-0.3131429
22	0xbe8044d8	-0.25052524
23	0xbebb96a5	-0.3663837
24	0x3e82116b	0.25403914
25	0xbe919536	-0.2843415
26	0xbe569849	-0.2095653
27	0xbd900b9f	-0.070334665
28	0xbe290a96	-0.16507944
29	0x3ea49cd4	0.321509
30	0x3e1c73c8	0.15278542
31	0x3e150a71	0.14554764
32	0xbe252c69	-0.16130222
33	0x3c9f4570	0.01944229
34	0xbd83273f	-0.0640397
35	0xbe73db3b	-0.23814099
36	0xbe58770f	-0.21139167
37	0x3e408d05	0.18803795
38	0xbe8d8980	-0.27643967
39	0x3df94a84	0.12172416
40	0x3e68e2f6	0.22742829
41	0xbd187a7f	-0.037226196
42	0x3dc0fffd	0.09423826
43	0x3df9fcef	0.122064464
44	0xbe9536fd	-0.29143515
45	0xbb944024	-0.0045242477
46	0xbe9e5079	-0.3092077
47	0x3e04cd08	0.12968838
48	0x3e55e8e8	0.20889628
49	0x3e92e530	0.2869048
50	0x3e872917	0.26398537
51	0xbc386f22	-0.011256965
52	0x3e25a4a9	0.16176094
53	0xbe83d6a9	-0.2574971
54	0xbe516740	-0.20449543
55	0xbe658e58	-0.22417581
56	0x3ead4f4f	0.3384957
57	0xbed7aec4	-0.42125523
58	0xbe79b2d5	-0.24384625
59	0x3d4a499c	0.049386606
60	0xbea20d60	-0.3165083
61	0x3e458ff1	0.1929319
62	0x3e782663	0.24233393
63	0x3dd6c40b	0.10486611
64	0xbe80e0f4	-0.25171626
65	0x3da293ea	0.079383686
66	0xbe81ff2d	-0.25389996
67	0xbdd1bc1b	-0.102409564
68	0xbe1c8662	-0.15285638
69	0x3e5aeef1	0.21380211
70	0x3de95652	0.113934174
71	0x3df27cdc	0.11840221
72	0x3e4fe969	0.20303883
73	0xbc1f91cf	-0.009739353
74	0x3e958c97	0.29208824
75	0x3e205d96	0.156607
76	0xbe057868	-0.13034213
77	0xbe7f271c	-0.24917263
78	0xbe66ab9a	-0.22526398
79	0x3df77474	0.120827585
80	0x3e360b07	0.17777644
81	0x3e5174e1	0.20454742
82	0xbb2bc9d4	-0.0026212828
83	0xbe91f29c	-0.2850541
84	0xbe4f40c7	-0.20239554
85	0xbe674a8c	-0.22587031
86	0xbc971d93	-0.01844672
87	0xbe9be9c8	-0.30451798
88	0x3ce714c6	0.028208148
89	0xbe6286b5	-0.22121699
90	0xbe8fe9a7	-0.2810795
91	0x3dcd6f56	0.10031001
92	0xbe2a1a5f	-0.16611622
93	0x3e9b2e8c	0.3030895
94	0x3e361a6d	0.17783518
95	0x3eedb0f6	0.46424073
96	0xbe3a3fea	-0.18188444
97	0x3e102c52	0.14079407
98	0xbe68f4d6	-0.22749647
99	0xbdee153f	-0.11625146
100	0xbe27cd25	-0.1638685
101	0x3e5297d8	0.20565736
102	0x3d110a32	0.035410114
103	0x3d11b7d2	0.035575695
104	0x3e7c80bc	0.24658483
105	0xbd444c8d	-0.047924567
106	0x3e546350	0.2074101
107	0x3e103836	0.14083943
108	0xbdfc1419	-0.12308521
109	0xbe4ae62c	-0.19814366
110	0xbe6a8010	-0.22900414
111	0x3db5ce1c	0.08877203
112	0x3e4435c1	0.1916113
113	0x3e365c0c	0.1780855
114	0x3c5e66ca	0.0135743115
115	0xbe34ac60	-0.17643881
116	0xbdc5de38	-0.096615255
117	0xbe766c13	-0.24064665
118	0xbd992707	-0.07478147
119	0xbe7bda70	-0.24595046
120	0x3d4d4b3e	0.050120585
121	0xbe81eded	-0.25376835
122	0xbe7582ac	-0.23975629
123	0x3d339ca6	0.043850563
124	0xbe4daf0e	-0.2008631
125	0x3e874a70	0.2642398
126	0x3e4eb8f4	0.20187742
127	0x3e9e3679	0.30900934
128	0x3e11e8c7	0.14248954
129	0xbe0179b3	-0.12644081
130	0xbd5d4487	-0.05402043
131	0x3e396998	0.18106687
132	0x3e44d30b	0.19221132
133	0xbe662ef2	-0.22478846
134	0x3e9f0a09	0.31062344
135	0xbd896d6f	-0.06710326
136	0xbe4fa9dc	-0.2027964
137	0xbca39432	-0.019968126
138	0xbd8776bb	-0.06614443
139	0xbd3f9424	-0.046772137
140	0x3e27de6c	0.16393441
141	0x3da357a6	0.07975702
142	0x3e965732	0.293634
143	0xbd7c202c	-0.06155412
144	0xbe655875	-0.22397025
145	0xbe521d14	-0.20518905
146	0xbe72c652	-0.23708466
147	0x3dc0e0aa	0.09417851
148	0xbdb0708e	-0.08615218
149	0x3e76d2d3	0.2410386
150	0x3e2d9ed8	0.16955125
151	0x3eb158d8	0.34638095
152	0xbeb2a2c3	-0.34889802
153	0x3eb1ee46	0.347521
154	0x3e63acc6	0.22233877
155	0x3bdd5f2f	0.0067557315
156	0x3e80623d	0.2507495
157	0xbe716f37	-0.23577581
158	0xbe50c3ef	-0.20387243
159	0xbe25295f	-0.16129063
160	0x3e60907f	0.21930121
161	0x3e55259d	0.2081513
162	0xbd6ab0f6	-0.05729767
163	0xbeb3d6db	-0.3512486
164	0xbe6d67f6	-0.23184189
165	0x3e8d0aa3	0.27547178
166	0xbe6126ce	-0.21987459
167	0xbe104c01	-0.14091493
168	0x3e8de4c0	0.27713585
169	0x3c239400	0.009984016
170	0x3e596e4f	0.21233486
171	0xbe0b9b08	-0.13633358
172	0x3d8b581e	0.068039164
173	0xbe6427c7	-0.22280799
174	0xbe7093b0	-0.23493838
175	0x3d29c2a3	0.041445386
176	0x3e9828e8	0.2971871
177	0x3d24189e	0.04006254
178	0x3e0c25a4	0.13686234
179	0xbe9089ca	-0.28230125
180	0x3daf3e08	0.085567534
181	0xbdb7c9f2	-0.08974065
182	0xbe0ad979	-0.13559522
183	0xbe9496f0	-0.29021406
184	0x3cc58c06	0.02411462
185	0xbeafacf4	-0.3431164
186	0xbe92bb26	-0.28658408
187	0xbe382d27	-0.17985974
188	0x3d1428fe	0.036171906
189	0x3ec5370f	0.3851857
190	0x3e717743	0.23580651
191	0x3de3a09a	0.11114617
192	0xbe66fb7d	-0.22556873
193	0x3d20dc1b	0.03927241
194	0xbe3d60db	-0.18493979
195	0xbe49f213	-0.1972125
196	0xbe5f6edd	-0.21819635
197	0x3dcac460	0.09900737
198	0xbe6490b8	-0.22320831
199	0x3da6f109	0.081514426
200	0x3e7ac76f	0.2449014
201	0xbc069214	-0.008213539
202	0x3e4032df	0.18769406
203	0x3e7afac7	0.24509726
204	0xbe86989d	-0.2628831
205	0xbdd4980e	-0.10380565
206	0xbe77a740	-0.24184895
207	0x3d631b65	0.055446047
208	0x3e459f14	0.19298965
209	0x3e915e0c	0.28392065
210	0x3e32fb6c	0.17478722
211	0x3bae0d8f	0.005311675
212	0x3e33a672	0.17543963
213	0xbe68a116	-0.227177
214	0xbe767560	-0.24068213
215	0xbe5610e6	-0.20904884
216	0x3ec5ad13	0.38608608
217	0xbe90088a	-0.28131515
218	0xbe35bbf1	-0.17747475
219	0x3d1c369f	0.03813803
220	0xbe9a91af	-0.30189273
221	0x3e2b8899	0.16751327
222	0x3e28391e	0.16428038
223	0x3dc78ee6	0.097440526
224	0xbcf443b4	-0.02981744
225	0x3e141f69	0.14465107
226	0x3de494e5	0.11161212
227	0x3e13a372	0.14417818
228	0x3d801e7a	0.06255813
229	0xbe9181cd	-0.28419343
230	0xbe9693ce	-0.2940964
231	0xbe08b136	-0.1334885
232	0xbce33c7d	-0.027738804
233	0x3ef0a9c0	0.4700451
234	0xbe246654	-0.1605466
235	0x3e974a00	0.29548645
236	0x3d9c9f9f	0.07647633
237	0x3d695c98	0.05697307
238	0x3e8309c6	0.25593394
239	0xbe7d9a2a	-0.2476584
240	0xbd829cca	-0.063775614
241	0x3ddc23fc	0.10749051
242	0xbdf07574	-0.117411524
243	0x3e53ed71	0.20696045
244	0x3f1b99e5	0.607817
245	0xbd395f5b	-0.045256954
246	0xbeaa937e	-0.33315653
247	0x3e951e1a	0.29124528
248	0x3ed85b87	0.4225733
249	0x3eb0e9d8	0.3455341
250	0x3ef00d05	0.46884933
251	0xbe25000f	-0.16113304
252	0xbd95023d	-0.072758175
253	0xbea9060a	-0.3301242
254	0xbe98f811	-0.2987676
255	0xbf25d3ed	-0.647765

context_transformer_0/kq_shared_bottleneck/norm/mul;context_transformer_0/kq_shared_bottleneck/norm/add;context_transformer_0/attention/query/einsum/Einsum;context_transformer_0/attention/query/add;context_transformer_0/attention/value/einsum/Einsum;context_transformer_0/attention/query/add/ReadVariableOp/resource;context_transformer_0/attention/Mul;context_transformer_0/attention/Mul/y f4 [32]
0	0xbe857e22	-0.26072794
1	0xbe919077	-0.2843053
2	0xbe3a7fae	-0.18212768
3	0xbe3c116f	-0.18366025
4	0x3e8759fc	0.2643584
5	0xbe3feeb1	-0.18743397
6	0xbe82ec9c	-0.25571144
7	0x3d864db2	0.06557788
8	0x3daaf73a	0.08347936
9	0x3c8ccccb	0.017187497
10	0xbdb7559a	-0.08951874
11	0x3df4dc6e	0.11956106
12	0xbd891d1b	-0.066950046
13	0xbe189866	-0.14901885
14	0x3e310560	0.17287207
15	0xbdbf80e0	-0.09350753
16	0x3c51ce4f	0.012805535
17	0xbdededd8	-0.11617631
18	0xbcadbbfa	-0.021207798
19	0x3dd0dc94	0.10198322
20	0x3cadd332	0.02121887
21	0x3df50ba7	0.11965113
22	0x3e1c79cb	0.15280835
23	0x3e4f55f7	0.20247637
24	0x3e13bc1f	0.14427231
25	0x3d9c571f	0.076338045
26	0x3d24ea56	0.040262543
27	0xbd5b9f07	-0.053618457
28	0xbd09dc0c	-0.03365712
29	0x3e459e93	0.19298773
30	0x3e177a80	0.14792824
31	0x3e1b6368	0.15174639

context_transformer_0/kq_shared_bottleneck/norm/mul;context_transformer_0/kq_shared_bottleneck/norm/add;context_transformer_0/attention/query/einsum/Einsum;context_transformer_0/attention/query/add;context_transformer_0/attention/value/einsum/Einsum;context_transformer_0/attention/query/add/ReadVariableOp/resource;context_transformer_0/attention/Mul;context_transformer_0/attention/Mul/y1 f4 [32, 32]
0	0x3d6e76e7	0.058218863
1	0x3d39ab98	0.04532966
2	0xbe5146ee	-0.20437214
3	0xbbb5f3c0	-0.005552739
4	0x3ccacfc1	0.024757268
5	0x3d143679	0.03618476
6	0x3cdacd26	0.02670915
7	0x3d0f93b6	0.035052978
8	0xbd1107a8	-0.035407692
9	0x3dee906e	0.116486415
10	0x3be3f2a4	0.0069564153
11	0xbd86e669	-0.06586916
12	0xbc64d93f	-0.013967811
13	0xbd531cfe	-0.05154132
14	0x3d261aad	0.040552784
15	0x3d585dd9	0.052823875
16	0xbd28c52f	-0.041203674
17	0xbd616f48	-0.055037767
18	0xbd418786	-0.047248386
19	0xbd42b977	-0.047540154
20	0x3ab2b00b	0.0013632787
21	0x3d263e90	0.040587008
22	0x3d40b8b8	0.04705116
23	0x3db23985	0.08702377
24	0xbdca752c	-0.0988563
25	0xbc824bba	-0.01590525
26	0xbd1a965c	-0.03774105
27	0x3d4804e5	0.048832793
28	0x3d3ca2af	0.046053585
29	0x3b4962ad	0.0030728981
30	0x3c7be7b8	0.01537507
31	0xbc7df63c	-0.015500601
32	0x3bdea5a5	0.0067946487
33	0xbcc9f1ab	-0.02465137
34	0xbd6fb91e	-0.05852615
35	0xbc4a1844	-0.012334887
36	0x3d3f20fb	0.046662312
37	0x3d0ee0c2	0.034882315
38	0xbd680e6f	-0.05665439
39	0x3da63544	0.08115628
40	0xbdb27282	-0.08713247
41	0x3dd5c2c0	0.10437536
42	0x3c8e926c	0.017403804
43	0xbd8c2561	-0.06843067
44	0xbd93630a	-0.071966246
45	0xbd13f338	-0.036120623
46	0x3cee243f	0.029070018
47	0x3d93494d	0.071917154
48	0xbdb970fd	-0.09054754
49	0xbd7f31f9	-0.062303517
50	0x3c9e8101	0.019348623
51	0x3b2ef301	0.0026695135
52	0x3d121a53	0.035669636
53	0x3d9b38d1	0.07579196
54	0x3d56dd58	0.052457184
55	0x3dac0775	0.0839986
56	0xbd25b6db	-0.040457588
57	0xbd23f836	-0.040031634
58	0xbd5638a1	-0.0523001
59	0x3dbb8717	0.09156626
60	0x3c9f8185	0.01947094
61	0x3c0973f2	0.00838946
62	0x3ca7e464	0.020494647
63	0x3bfef0d3	0.0077801733
64	0xbd8b162d	-0.06791339
65	0x3dfa25c3	0.12214234
66	0xbded4188	-0.11584765
67	0x3cec8976	0.02887414
68	0x3c831f59	0.016006159
69	0x3d8d4d40	0.068995
70	0x3cfd9ef6	0.030959588
71	0x3d83cb67	0.0643528
72	0xbca254dd	-0.019815857
73	0x3db7a6ee	0.08967386
74	0x3d851bf4	0.06499472
75	0x3b66bb91	0.0035207013
76	0xbd5f33b1	-0.054492656
77	0xbd463e1f	-0.048399087
78	0xbc665b98	-0.014059924
79	0x3da973a3	0.08274009
80	0xbc6ba373	-0.014382231
81	0xbcfbb6b7	-0.030726774
82	0xbc9a23f1	-0.018815966
83	0xbd600a2e	-0.054697208
84	0xbd70a005	-0.058746357
85	0xbc38f509	-0.01128889
86	0x3cefd041	0.029274108
87	0x3daaa49e	0.083321795
88	0xbe417d67	-0.18895493
89	0xba26e49f	-0.00063664647
90	0x3c2030c2	0.00977725
91	0x3da8fa19	0.08250827
92	0x3b77cae9	0.0037810153
93	0x3ce90ce2	0.028448526
94	0x3d3116a7	0.043234494
95	0x3de0f137	0.10983508
96	0xbd440c8e	-0.047863536
97	0x3dbc2849	0.09187371
98	0xbdb55867	-0.08854752
99	0x3c7de241	0.015495838
100	0x3c69b877	0.014265171
101	0x3d34f4d3	0.044178795
102	0x3c0c3862	0.008558365
103	0x3d884b5e	0.06655
104	0xbc8b5030	-0.01700601
105	0x3dd4e0cf	0.10394441
106	0x3d59b111	0.05314738
107	0xbc506a2b	-0.012720625
108	0xbcf40f78	-0.029792532
109	0xbd859345	-0.0652223
110	0xba448a4b	-0.0007497414
111	0x3d962c12	0.073326245
112	0xbcbfe014	-0.023422278
113	0xbcaa217b	-0.020767918
114	0xbc72d234	-0.014820624
115	0xbd8df80c	-0.06932077
116	0xbc2d0de1	-0.010562391
117	0x3cadcb0a	0.02121498
118	0x3cfa29bd	0.03053748
119	0x3d9f5bd8	0.0778119
120	0xbe192d2f	-0.14958642
121	0xbb46bcce	-0.0030324939
122	0x39abd8f9	0.0003277732
123	0x3d9bd641	0.07609225
124	0x3cba3420	0.022729933
125	0x3cf7ec92	0.030264173
126	0x3cc073b8	0.023492679
127	0x3d7366b3	0.059424113
128	0xbd622a5e	-0.055216186
129	0x3c16c34e	0.009201838
130	0x3db9a581	0.090647705
131	0x3b1d7928	0.0024028514
132	0xbd3468e4	-0.044045344
133	0xbd2bd043	-0.04194666
134	0x3c94dd99	0.018172072
135	0xbd5283f6	-0.05139538
136	0x3d888764	0.06666449
137	0xbda679cb	-0.08128699
138	0x3c1836c4	0.009290401
139	0x3dc4ad8f	0.09603416
140	0x3d40dcc4	0.04708554
141	0x3c3a7d67	0.011382437
142	0xbca61488	-0.020273462
143	0xbd571813	-0.052513193
144	0x3d8dd9e8	0.06926328
145	0x3d7bb6f2	0.061453767
146	0xbafdf17d	-0.0019374337
147	0x3cbd2b17	0.023091836
148	0x3ccebfff	0.025238035
149	0xbd6535c7	-0.05595949
150	0xbd898b03	-0.067159675
151	0xbd6f3640	-0.058401346
152	0x3d7eae0e	0.06217771
153	0x3d17d9e5	0.037073035
154	0x3d271b6d	0.04079764
155	0xbd9de64b	-0.077099405
156	0xbd2b8ef5	-0.04188438
157	0xbc34f39a	-0.011044407
158	0xbc89fac2	-0.016843203
159	0xbbd42859	-0.0064745364
160	0x3e1aa499	0.15101852
161	0x3d9473d6	0.072486565
162	0xbe33f12e	-0.17572471
163	0xbdd79ef8	-0.10528368
164	0xbc6f4959	-0.01460489
165	0x3d3826fc	0.044959053
166	0xbd41b13c	-0.047288164
167	0xbb96debc	-0.0046041887
168	0xbc0fbd23	-0.008773121
169	0x3d4319d8	0.04763207
170	0x3cd98be4	0.026555963
171	0xbdc67ac7	-0.09691387
172	0xbc8483ff	-0.016176222
173	0xbd1d5b34	-0.038417056
174	0xbcdc03d2	-0.02685729
175	0x3d182f1e	0.03715431
176	0x3c82a9bb	0.015950074
177	0xbd40902a	-0.047012486
178	0x3b24e8e5	0.002516323
179	0xbd7aeeb2	-0.061262794
180	0x3d06c538	0.032902926
181	0x3d2745a3	0.040837895
182	0x3d1976a3	0.037466656
183	0x3d90e735	0.07075349
184	0xbe5897d2	-0.21151665
185	0xbc2f9894	-0.01071753
186	0xbd62e901	-0.05539799
187	0x3c97a870	0.018512934
188	0x3da2034d	0.07910786
189	0x3d75cee4	0.06001176
190	0x3d8ffb7f	0.07030391
191	0xbd52e4fc	-0.051487908
192	0xbd18fdad	-0.0373513
193	0xbc844c79	-0.016149746
194	0xbdc78c52	-0.09743561
195	0x3a8cad17	0.0010732737
196	0x3d296a8a	0.04136137
197	0x3d053964	0.032525435
198	0xbcc7f13d	-0.024407024
199	0x3d8d00ed	0.06884942
200	0xbd89930f	-0.06717502
201	0x3dd861eb	0.10565551
202	0x3ce23c21	0.027616562
203	0xbbad8546	-0.0052954284
204	0xbd83aaed	-0.06429086
205	0xbd072c1e	-0.033001058
206	0x3d0c94b5	0.034321506
207	0x3d998756	0.074965164
208	0xbda9247c	-0.08258912
209	0xbd0f3f31	-0.034972373
210	0xb9b17707	-0.00033848753
211	0x3b6ac0cf	0.003582049
212	0x3d752ea3	0.05985893
213	0x3d3e975b	0.046531063
214	0x3d0dae1b	0.034589868
215	0x3dbbfd23	0.09179141
216	0xbb16b587	-0.0022996382
217	0xbd11d39b	-0.035602193
218	0xbd19d897	-0.03756007
219	0x3da8d057	0.08242863
220	0x3b0a4c7f	0.0021102724
221	0xbcc026a0	-0.023455918
222	0xbc344906	-0.011003738
223	0xb8f7cba8	-0.00011815812
224	0xbc1a1bc7	-0.009406037
225	0xbe419e45	-0.18908031
226	0xbdc68743	-0.09693768
227	0x3d509f20	0.050933003
228	0x3c7fc962	0.015611978
229	0xbdfcc781	-0.1234274
230	0x3d8b7afd	0.068105675
231	0xbdbcd5ae	-0.09220444
232	0xbc949828	-0.01813896
233	0x3cd28960	0.025700271
234	0xbd7c1d14	-0.06155117
235	0x3daa904e	0.08328305
236	0x3da0fe96	0.078610584
237	0x3c4bb134	0.012432385
238	0x3ddfa4cb	0.10920104
239	0xbdd28b6c	-0.10280499
240	0xbd8c4259	-0.06848592
241	0x3cc5f941	0.024166705
242	0xbdb2ce4c	-0.08730754
243	0x3da4f0e4	0.08053759
244	0x3e216e45	0.1576472
245	0x3c32b2a4	0.010906849
246	0xbd229004	-0.039688125
247	0xbc0e3e74	-0.008681882
248	0x3ec6e19e	0.38844007
249	0x3ccd23ff	0.025041578
250	0xbd7a2d60	-0.06107843
251	0xbdad988a	-0.0847636
252	0xbd376837	-0.04477712
253	0xbdf36259	-0.11883993
254	0xbe0edb6c	-0.1395089
255	0xbe445086	-0.19171342

context_transformer_0/ffn_layer_0/intermediate_dense/einsum/Einsum;context_transformer_0/ffn_layer_0/intermediate_dense/Relu;context_transformer_0/ffn_layer_0/intermediate_dense/add f4 [32]
0	0xbe0bf7dd	-0.13668771
1	0xbe552cfd	-0.20817943
2	0xbe944b25	-0.2896358
3	0xbe8b7af1	-0.27242234
4	0xbe0605ed	-0.13088198
5	0xbec1dd1e	-0.37864012
6	0xbebad0c0	-0.3648739
7	0xbe5cb17d	-0.21552081
8	0xbe446391	-0.19178607
9	0xbed1b375	-0.40957227
10	0xbe743175	-0.23846991
11	0xbe73a64f	-0.2379391
12	0xbeb7c01d	-0.35888758
13	0xbe3c686c	-0.18399209
14	0xbe0b929a	-0.13630143
15	0xbdfa7924	-0.12230137
16	0xbe16859b	-0.14699404
17	0xbde1cc90	-0.11025345
18	0xbe822252	-0.2541681
19	0xbe656dbe	-0.22405145
20	0xbdd80e1f	-0.105495684
21	0xbe1c742e	-0.15278694
22	0xbe82a06a	-0.2551301
23	0xbdd1bf75	-0.10241596
24	0xbe845d2d	-0.25852337
25	0xbdeb2b56	-0.11482875
26	0xbeadf904	-0.33979046
27	0xbedfa0ce	-0.43677372
28	0xbdd3cc2c	-0.10341677
29	0xbe13fb27	-0.14451276
30	0xbecdf8c7	-0.40228865
31	0xbdf98320	-0.12183213

context_transformer_0/attention/norm/mul;context_transformer_0/attention/norm/add;context_transformer_0/ffn_layer_0/intermediate_dense/einsum/Einsum;context_transformer_0/ffn_layer_0/intermediate_dense/Relu;context_transformer_0/ffn_layer_0/intermediate_dense/add f4 [32, 32]
0	0xbe07adc9	-0.13249888
1	0xbe2377f4	-0.15963727
2	0xbe29d8ec	-0.16586655
3	0xbd9beb20	-0.07613206
4	0x3ebd4f38	0.36974502
5	0x3e62c060	0.22143698
6	0x3e788b54	0.242719
7	0x3e1e16bb	0.15438358
8	0xbb843d19	-0.0040356037
9	0xbd8d9c47	-0.06914573
10	0xbc17d59f	-0.00926724
11	0xbea4e3d8	-0.3220508
12	0xbe4bc1c9	-0.19898142
13	0x3e984bcf	0.29745337
14	0x3d4671f6	0.048448525
15	0xbea5f7df	-0.32415673
16	0x3e862fb1	0.2620826
17	0xbe3e970d	-0.18612309
18	0xbddab801	-0.10679627
19	0x3db241b4	0.08703938
20	0x3d192a67	0.037393954
21	0xbdde4066	-0.10852127
22	0xbe3fbb6c	-0.1872384
23	0xbea49f5b	-0.3215283
24	0x3eb9d203	0.3629304
25	0x3e73abd6	0.23796019
26	0x3d872d14	0.06600395
27	0xbd583828	-0.05278793
28	0xbdc55b04	-0.096365005
29	0x3d8fc26a	0.070195034
30	0x3da53ef0	0.08068645
31	0x3e7bd68e	0.24593565
32	0x3db0f265	0.08639983
33	0xbc82cd42	-0.015967015
34	0xbe1b2db9	-0.1515416
35	0x3cf52100	0.029922962
36	0x3dfc529b	0.12320443
37	0xbeb1c73f	-0.34722325
38	0x3cef4ef3	0.02921245
39	0x3e79ad45	0.24382503
40	0xbd5d36b3	-0.054007243
41	0xbe816070	-0.25268888
42	0x3d5d3543	0.054005872
43	0xbd8f64b1	-0.07001627
44	0x3e2b0c02	0.167038
45	0x3e88a1b2	0.26685864
46	0xbe7d245a	-0.24720898
47	0x3db773d7	0.089576416
48	0x3e712afe	0.23551556
49	0xbdf4f60c	-0.11960992
50	0x3e126b9b	0.1429886
51	0xbd834e40	-0.064114094
52	0x3db8cc96	0.09023397
53	0xbd8e899c	-0.06959841
54	0x3e9da226	0.30787772
55	0x3c411c07	0.011786467
56	0xbd825d4a	-0.0636545
57	0xbe8d1046	-0.27551478
58	0x3e59b9ae	0.21262237
59	0xbe4d669d	-0.20058675
60	0xbe9e920c	-0.309708
61	0x3da11ff5	0.078674234
62	0xbe7435b2	-0.23848608
63	0x3eab4571	0.33451417
64	0xbd09eee9	-0.033675108
65	0xbd389112	-0.045060225
66	0xbe2a0c32	-0.16606215
67	0xbda919f5	-0.08256904
68	0x3db686ff	0.08912467
69	0x3cb86e2e	0.022513475
70	0xbd9796ca	-0.074018076
71	0xbd847673	-0.06467905
72	0x3debb209	0.11508567
73	0xbe28a03f	-0.16467379
74	0xbe01366c	-0.12618417
75	0xbdb878a6	-0.09007387
76	0xbd1c038b	-0.038089316
77	0x3de62f59	0.112394996
78	0x3db710d1	0.08938754
79	0x3e6b11e8	0.2295605
80	0x3dc984ff	0.0983982
81	0xbeafb647	-0.34318754
82	0x3ed507d1	0.41607526
83	0xbe8a399e	-0.26997083
84	0x3e98965d	0.29802218
85	0x3eb8cd9f	0.36094376
86	0xbe79c31d	-0.24390836
87	0xbe2c003a	-0.16796961
88	0xbc7cc2b9	-0.015427285
89	0x3f0d912d	0.55299646
90	0x3dfc011c	0.12304899
91	0xbd198dee	-0.03748887
92	0x3db2fb89	0.08739383
93	0xbe78e4d4	-0.24306041
94	0x3e156b15	0.1459163
95	0x3e165a84	0.14682966
96	0x3ddf79f9	0.10911936
97	0xbdb67d33	-0.089105986
98	0xbdc5eddd	-0.096645094
99	0x3ed1b8db	0.40961346
100	0x3d449005	0.04798891
101	0x3db6c8d5	0.089250244
102	0x3dc3544e	0.09537564
103	0xbdefb7f7	-0.117050104
104	0x3f0f0088	0.55860186
105	0xbe22922e	-0.15876076
106	0x3e08feed	0.13378496
107	0x3dd34907	0.10316663
108	0x3e37da8c	0.17954463
109	0x3e5894d2	0.2115052
110	0x3b04daca	0.002027201
111	0x3e8a4567	0.27006075
112	0x3c65b3d2	0.014019923
113	0x3dd217b2	0.10258426
114	0xbd893ba8	-0.06700832
115	0x3edbab19	0.42903975
116	0x3cbdc354	0.023164429
117	0xbe8ff92f	-0.281198
118	0xbebad3ff	-0.36489865
119	0xbd719094	-0.05897577
120	0xbe224173	-0.1584528
121	0xbe15750b	-0.1459543
122	0xbe40099f	-0.1875367
123	0xbd32f22a	-0.043687977
124	0xbe1a95f1	-0.1509626
125	0x3d1c7b0a	0.038203277
126	0xbc37c3a5	-0.011216079
127	0xbce92052	-0.028457794
128	0x3c9156ad	0.017741526
129	0xbdc42658	-0.09577626
130	0xbe2333eb	-0.15937774
131	0x3e66ffaa	0.22558466
132	0x3dffdaeb	0.12492927
133	0xbdc7165b	-0.09721061
134	0x3d893ef6	0.06701462
135	0x3d229e5a	0.039701797
136	0xbd88c978	-0.06679052
137	0x3eb24b75	0.34823194
138	0xbe97fb0b	-0.29683718
139	0xbda2b46a	-0.079445675
140	0xbe464cb4	-0.19365197
141	0xbe008cee	-0.1255376
142	0xbddc074f	-0.107435815
143	0x3dee3040	0.11630297
144	0x3d935f91	0.07195962
145	0x3e28f2bf	0.1649885
146	0x3da0c9e6	0.07851009
147	0x3defdf1e	0.11712478
148	0x3ec56b22	0.38558298
149	0x3e05e113	0.1307414
150	0xbe2edccf	-0.1707642
151	0xbde4db8a	-0.11174686
152	0xbe31703c	-0.1732797
153	0x3e501b46	0.20322904
154	0xbd810ba4	-0.063010484
155	0x3ea95433	0.3307205
156	0x3ebfc619	0.37455824
157	0x3e3c261d	0.18373914
158	0x3d628717	0.055304613
159	0xbe79fba5	-0.24412401
160	0xbe5d4472	-0.21608141
161	0x3e28ed63	0.16496806
162	0x3e1393b5	0.14411815
163	0x3d8b5da9	0.06804974
164	0x3e5fff72	0.21874788
165	0xbdb4245e	-0.08795999
166	0x3e19f638	0.15035331
167	0x3d8552da	0.06509943
168	0x3d8ef293	0.06979861
169	0xbdf9bd71	-0.12194336
170	0x3c907526	0.017633986
171	0x3dbce802	0.092239395
172	0x3bcb2a50	0.0062001124
173	0x3e0c99bb	0.13730519
174	0x3e2fd0cc	0.17169493
175	0xbd5ad9f6	-0.05343052
176	0xbd5eaf6e	-0.05436652
177	0x3c940f74	0.018073775
178	0xbddf1ace	-0.108937845
179	0xbe38ec5d	-0.18058915
180	0x3cd35256	0.025796097
181	0x3cac47dd	0.02103036
182	0xbec7d356	-0.39028424
183	0xbd95314a	-0.07284792
184	0x3dbc92e7	0.09207707
185	0x3f08faaf	0.5350751
186	0x3d319e0d	0.04336362
187	0xbdf7fb44	-0.12108472
188	0xbdb9e198	-0.09076232
189	0x3d7796a4	0.060446396
190	0xbe484693	-0.19558172
191	0xbe4e535f	-0.20148991
192	0xbe4eb1c5	-0.20185001
193	0x3e7e5114	0.24835616
194	0xbc850b82	-0.016240839
195	0x3ea3d32b	0.31997046
196	0x3e56e143	0.20984368
197	0xbe3c6d66	-0.18401107
198	0xbe296c22	-0.16545156
199	0x3d3f6cf8	0.04673478
200	0x3e6de196	0.23230585
201	0x3dcd7a78	0.10033125
202	0xbe7dfe9f	-0.24804161
203	0xbdc414fb	-0.09574314
204	0xbd9e8e53	-0.0774199
205	0xbe031e51	-0.12804534
206	0x3e00036c	0.12501305
207	0x3efc6dac	0.49302423
208	0xbd823511	-0.06357778
209	0x3e0220fc	0.12707895
210	0xbd09f5f2	-0.033681817
211	0x3b6a6673	0.003576663
212	0x3ec745ef	0.38920543
213	0xbda412d0	-0.08011401
214	0x3e64a584	0.22328764
215	0x3d3dec50	0.046367943
216	0x3e5fbf77	0.21850382
217	0x3ec88c80	0.39169693
218	0x3d49972e	0.04921644
219	0x3d294aee	0.041331224
220	0x3e1e5678	0.15462673
221	0x3e94fb89	0.29098156
222	0x3db54c93	0.08852496
223	0xbd776111	-0.060395304
224	0xbe1074ce	-0.14107057
225	0x3dbe80ba	0.093018964
226	0xbcdf7872	-0.027279112
227	0x3d08a37a	0.03335903
228	0xbe0e3627	-0.13887845
229	0xbd3b9f90	-0.045806468
230	0xbe88dbc1	-0.2673016
231	0xbea34441	-0.3188801
232	0x3ddebe21	0.10876108
233	0xbea5071b	-0.32231984
234	0xbd371e54	-0.044706658
235	0x3e2714d0	0.16316533
236	0xbda03150	-0.078219056
237	0xbe2ab6f1	-0.16671349
238	0x3d407216	0.0469838
239	0xbd829b78	-0.063773096
240	0x3e05ba31	0.13059308
241	0xbd83ae98	-0.064297855
242	0x3e273b3e	0.16331193
243	0x3e2c2d7b	0.16814224
244	0x3eb6e4a1	0.35721305
245	0x3e2a88b1	0.16653706
246	0xbe97710e	-0.2957844
247	0x3e2f984d	0.17147942
248	0x3d28fdb0	0.04125756
249	0x3c9d968a	0.019236822
250	0x3dadb84d	0.08482418
251	0x3c5d2b04	0.013499025
252	0xbe991016	-0.29895085
253	0x3dd1351d	0.10215209
254	0xbce92b3b	-0.028462997
255	0xbe399f0a	-0.18127075

context_transformer_0/ffn_layer_1/intermediate_dense/einsum/Einsum;context_transformer_0/ffn_layer_1/intermediate_dense/Relu;context_transformer_0/ffn_layer_1/intermediate_dense/add f4 [32]
0	0xbd78b8e6	-0.060723208
1	0xbe993c4f	-0.29928824
2	0xbe0be62c	-0.13662022
3	0xbe00e5b5	-0.12587626
4	0xbe92fa05	-0.28706375
5	0xbe2e5f10	-0.17028451
6	0xbd304c15	-0.043041307
7	0xbec97299	-0.39345244
8	0xbe22aba2	-0.15885785
9	0xbe9de0cc	-0.3083557
10	0xbeb95f1e	-0.3620538
11	0xbedbe313	-0.4294668
12	0xbdc387d3	-0.09547391
13	0xbeaf783a	-0.34271413
14	0xbe3f60b8	-0.18689239
15	0xbce68956	-0.028141659
16	0xbda476b1	-0.08030451
17	0xbdbb9c83	-0.091607116
18	0xbdf76d55	-0.120814
19	0xbe8c7f02	-0.2744065
20	0x3b5b906f	0.0033502837
21	0xbda86a8d	-0.08223448
22	0xbe1ce7ba	-0.15322772
23	0xbe3820b1	-0.17981221
24	0xbe830c98	-0.25595546
25	0xbe8441a9	-0.25831345
26	0xbead17ce	-0.33807224
27	0xbce66569	-0.028124528
28	0x3b9e089d	0.004822804
29	0xbe6b4284	-0.22974592
30	0xbdf36604	-0.11884692
31	0xbe96255e	-0.29325384

context_transformer_0/ffn_layer_0/norm/mul;context_transformer_0/ffn_layer_0/norm/add;context_transformer_0/ffn_layer_1/intermediate_dense/einsum/Einsum;context_transformer_0/ffn_layer_1/intermediate_dense/Relu;context_transformer_0/ffn_layer_1/intermediate_dense/add f4 [32, 32]
0	0x3ea86060	0.32886028
1	0x3deca871	0.11555565
2	0xbca3d99e	-0.020001229
3	0xbde9d268	-0.11417085
4	0x3e4e687c	0.20157045
5	0x3da40ad9	0.080098815
6	0xbeae31a1	-0.3402224
7	0xbeae485f	-0.3403959
8	0x3b899073	0.004198128
9	0xbe81acdf	-0.25327203
10	0xbe505bd9	-0.20347537
11	0xbe4306e4	-0.19045597
12	0xbd0db42b	-0.03459565
13	0xbe4d65d2	-0.20058373
14	0xbe5b60c1	-0.21423627
15	0x3c19a804	0.009378437
16	0x3e34a0b9	0.17639436
17	0xbdc31e31	-0.09527243
18	0x3eae9431	0.34097436
19	0xbdc40170	-0.09570587
20	0xbde8f2ab	-0.1137441
21	0x3dd6f6dd	0.10496304
22	0x3cb46004	0.02201844
23	0xbd2f3684	-0.0427766
24	0xbe5067ca	-0.20352092
25	0x3cdf4d41	0.027258517
26	0xbe1c0fd8	-0.15240419
27	0xbed52ae6	-0.4163429
28	0xbd8775fb	-0.066143
29	0x3e02ccc6	0.12773427
30	0x3dc5ea7a	0.096638635
31	0xbdf96b3b	-0.12178656
32	0xbd1701f1	-0.036867086
33	0x3ed956a5	0.42448917
34	0xbeae490d	-0.34040108
35	0x3de2c2f1	0.11072338
36	0xbd87be1c	-0.06628057
37	0x3d4e188e	0.050316386
38	0xbdd9f066	-0.106415555
39	0x3e64e282	0.22352031
40	0xbd1ecf80	-0.038772106
41	0xbe01c464	-0.12672573
42	0xbeabcf4d	-0.33556595
43	0xbdd525ed	-0.104076244
44	0xbe8e140a	-0.27749664
45	0xbe21682d	-0.15762396
46	0x3d936ab0	0.071980834
47	0xbdfb9ff6	-0.122863695
48	0x3e04e4fa	0.12977973
49	0x3eae2b31	0.34017327
50	0xbc6217d5	-0.013799627
51	0x3a747b54	0.00093262387
52	0xbe69c731	-0.22829892
53	0x3e3b0a51	0.18265654
54	0xbd31c44a	-0.043400086
55	0x3ce724fd	0.02821588
56	0x3e29dd23	0.16588263
57	0x3d85c2c9	0.06531293
58	0xbe4185aa	-0.18898645
59	0x3e102ca9	0.14079536
60	0x3dce9190	0.100863576
61	0xbdbd5a86	-0.092457816
62	0x3e8b1d47	0.27170774
63	0x3eca3051	0.39489987
64	0x3dfc8093	0.12329211
65	0x3e9c2f45	0.30504814
66	0x3d545ee7	0.05184832
67	0x3d91f5fe	0.071269974
68	0xbd1ea953	-0.0387357
69	0xbddc8f92	-0.10769571
70	0xbe91edf5	-0.2850186
71	0xbea8b850	-0.3295312
72	0xbbc7a03f	-0.006092101
73	0x3c6ea8ce	0.014566613
74	0x3d99ec9d	0.075158335
75	0xbd013e5a	-0.031553604
76	0xbda87b86	-0.08226685
77	0xbe3811cd	-0.1797554
78	0xbcb7e756	-0.022449177
79	0x3ebcefc4	0.36901677
80	0xbb4caf0a	-0.003123226
81	0x3c963674	0.018336512
82	0x3dd76cdf	0.105188124
83	0xbe4e68d0	-0.2015717
84	0xbdc31b05	-0.09526638
85	0xbe059bb2	-0.13047674
86	0x3e80d092	0.25159127
87	0x3e22f2f8	0.15912998
88	0xbe86bdeb	-0.2631677
89	0xbd4c22e1	-0.04983795
90	0xbc84378d	-0.01613977
91	0xbe3a7f9c	-0.18212742
92	0xbd494118	-0.049134344
93	0xbd1fceeb	-0.03901569
94	0xbdef6c9e	-0.11690639
95	0xbdac32b9	-0.08408112
96	0x3d33b98a	0.043878116
97	0x3e88557f	0.26627728
98	0x3e5e7a17	0.21726261
99	0x3da7a063	0.08184888
100	0xbe5ce9ab	-0.21573512
101	0x3c14cf4c	0.009082627
102	0xbe8b46e5	-0.27202526
103	0xbdd439dd	-0.10362599
104	0x3c836eb2	0.016043995
105	0xbed04812	-0.40679985
106	0x3e620d69	0.22075428
107	0x3c37a854	0.011209566
108	0xbd64d19b	-0.055863958
109	0x3cda87b4	0.026676036
110	0xbe028d37	-0.12749182
111	0xbb1245f8	-0.0022319537
112	0xbdabcbdd	-0.08388493
113	0xbe65d7b4	-0.22445565
114	0xbd05b298	-0.032641023
115	0x3e50ca5f	0.20389698
116	0xbdda9815	-0.106735386
117	0xbd075aba	-0.033045508
118	0x3c9c64a2	0.019090954
119	0x3e829c68	0.25509953
120	0x3e1e4156	0.15454611
121	0xbe1c043b	-0.15235989
122	0x3e0eb66e	0.13936779
123	0xbd8ce9e6	-0.0688055
124	0xbdea5eee	-0.11443888
125	0x3e13156c	0.1436364
126	0xbd3a0718	-0.04541692
127	0x3ea951e1	0.3307028
128	0x3c84aa1f	0.016194401
129	0x3e51736a	0.20454183
130	0xbcfb2716	-0.030658286
131	0xbc7e6755	-0.015527566
132	0x3e06c4f6	0.13161072
133	0x3bbbebc3	0.005734892
134	0xbe4757cc	-0.19467086
135	0xbe29a10f	-0.16565345
136	0x3d05a7b8	0.032630652
137	0xb9f74fc7	-0.0004717095
138	0xbdcd97ed	-0.10038743
139	0xbe0430cc	-0.1290924
140	0xbd1e25ec	-0.038610384
141	0x3d7cda67	0.061731722
142	0xbe2d8113	-0.16943769
143	0x3d96ea9d	0.07368968
144	0x3d61ca83	0.05512477
145	0x3e30683b	0.17227261
146	0xbe35c95d	-0.17752595
147	0x3b37a390	0.0028021075
148	0xbea4be08	-0.32176232
149	0xbdbb5f46	-0.09149031
150	0x3e352404	0.1768952
151	0x3d5e2dc3	0.05424286
152	0x3e5d2fe0	0.21600294
153	0xbc7dad7c	-0.015483256
154	0x3da408cb	0.080094896
155	0xbe7340d0	-0.23755193
156	0x3e36a294	0.17835456
157	0x3ecb9b85	0.3976709
158	0x3e79f04a	0.24408069
159	0xbe981298	-0.29701686
160	0x3d84aa36	0.06477778
161	0x3dc295d9	0.095012374
162	0xbda5f75f	-0.08103823
163	0x3cdd7864	0.027034946
164	0x3e3fa394	0.18714744
165	0xbdf32ade	-0.11873411
166	0xbdb83590	-0.08994591
167	0xbe0147bd	-0.12625022
168	0x3c1888e4	0.009309981
169	0xbc35a321	-0.011086256
170	0xbdb886ce	-0.09010087
171	0x3a18946f	0.0005820458
172	0x3d8a9642	0.06766941
173	0x3d66f1aa	0.056382813
174	0x3da4982b	0.08036836
175	0x3d9b18e7	0.07573109
176	0x3c980aea	0.018559892
177	0xbd10e5ce	-0.03537541
178	0xbd17c78b	-0.037055533
179	0xbd2e7b5d	-0.042598117
180	0x3dc12ad8	0.09432
181	0x3cbda240	0.023148656
182	0xbda6fe44	-0.08153966
183	0xbc69e54c	-0.01427586
184	0xbd52a70c	-0.05142884
185	0x3d3a0607	0.045415904
186	0xbe002a3c	-0.12516111
187	0xbe5ff47f	-0.21870612
188	0x3dcbe054	0.099548966
189	0x3df2a1bc	0.11847255
190	0xbdca8652	-0.09888901
191	0xbd17f791	-0.037101332
192	0xbecce575	-0.40018812
193	0xbd09afee	-0.033615045
194	0xbdabb82b	-0.083847366
195	0x3cb5da35	0.022198776
196	0xbe0726c2	-0.13198379
197	0x3b9b8b22	0.0047468105
198	0xbc6d5f2a	-0.014488021
199	0x3d8edb7c	0.06975457
200	0x3d1de6e2	0.038550265
201	0xbe2ad7a6	-0.16683826
202	0x3c65fe32	0.014037656
203	0xbe6f7bb9	-0.2338704
204	0xbe2a0f53	-0.16607408
205	0xbe683622	-0.226769
206	0x3e0b2b31	0.13590695
207	0xbd398bd2	-0.04529936
208	0xbda96c17	-0.082725696
209	0x3e69715b	0.22797148
210	0xbb601d05	-0.0034196984
211	0xbebc22c3	-0.3674527
212	0xbe11d419	-0.14241065
213	0x3e478e55	0.19487889
214	0xbef6b850	-0.48187494
215	0xbe53a85a	-0.2066969
216	0x3e776f3c	0.24163526
217	0xbe237b73	-0.15965061
218	0x3d80b30d	0.06284151
219	0xbebb2d19	-0.36557844
220	0x3d741b19	0.059596155
221	0x3caa83dd	0.02081483
222	0x3e91976e	0.28435844
223	0x3dbc22f7	0.091863565
224	0xbdc2c6de	-0.09510587
225	0xbd3b883e	-0.045784228
226	0xbe4f48af	-0.2024257
227	0x3c835a73	0.01603434
228	0xbc41cbfa	-0.011828417
229	0x3d3f99f6	0.046777688
230	0x3e21f701	0.15816881
231	0xbd8dbb23	-0.06920459
232	0x3e8a423b	0.27003655
233	0xbeaa9d1d	-0.33322993
234	0x3e0b61b4	0.1361149
235	0x3e4fb895	0.20285256
236	0x3e8f4c93	0.2798811
237	0x3e21db35	0.15806277
238	0x3e3cc74c	0.184354
239	0x3def309b	0.11679193
240	0xbbf3e70b	-0.007443314
241	0x3d961836	0.073288366
242	0xbe741d3a	-0.23839274
243	0x3e87b810	0.26507616
244	0xbc837b77	-0.016050084
245	0x3d68a9ba	0.05680249
246	0xbd917338	-0.07102054
247	0xbe0a981d	-0.13534589
248	0x3e07e433	0.13270645
249	0x3e102bd4	0.14079219
250	0xbdcdd1ae	-0.10049759
251	0x3dcf68cb	0.101274095
252	0x3dbf8caa	0.093530014
253	0x3dcbdac3	0.09953835
254	0xbcd51658	-0.02601163
255	0x3d5e7057	0.054306354

context_transformer_0/ffn_layer_2/intermediate_dense/einsum/Einsum;context_transformer_0/ffn_layer_2/intermediate_dense/Relu;context_transformer_0/ffn_layer_2/intermediate_dense/add f4 [32]
0	0xbe4cb6e6	-0.19991645
1	0xbdecb57b	-0.11558052
2	0xbd77c3e1	-0.06048954
3	0xbee2ad84	-0.44273007
4	0xbe9ef4f1	-0.3104625
5	0xbda3d398	-0.07999343
6	0xbdf638a1	-0.1202252
7	0xbe76a46f	-0.24086164
8	0xbeaa0648	-0.33207917
9	0xbe2682b6	-0.162608
10	0xbe826a93	-0.25471935
11	0xbdbbf8d5	-0.0917832
12	0xbdf49ddc	-0.11944172
13	0xbcaf1540	-0.021372437
14	0xbde9d351	-0.114172585
15	0xbde315c9	-0.110881396
16	0xbe7ecbf3	-0.24882488
17	0xbe30ce44	-0.17266184
18	0xbbdcb018	-0.006734859
19	0xbe739290	-0.23786378
20	0xbcae6705	-0.021289358
21	0xbe9ec6e3	-0.31011114
22	0xbdce0512	-0.10059561
23	0xbe4d87ce	-0.20071337
24	0xbe8bc9e9	-0.27302483
25	0xbe975364	-0.2955581
26	0xbd0ad84c	-0.033897683
27	0xbe37f535	-0.17964633
28	0xbea49320	-0.32143497
29	0x3d477613	0.04869659
30	0xbe1c915d	-0.15289827
31	0xbeb8dfb4	-0.36108172

context_transformer_0/ffn_layer_1/norm/mul;context_transformer_0/ffn_layer_1/norm/add;context_transformer_0/ffn_layer_2/intermediate_dense/einsum/Einsum;context_transformer_0/ffn_layer_2/intermediate_dense/Relu;context_transformer_0/ffn_layer_2/intermediate_dense/add f4 [32, 32]
0	0xbe8cbe79	-0.2748907
1	0xbe7e30b8	-0.24823272
2	0xbe8087a8	-0.25103498
3	0xbe0a0420	-0.13478136
4	0x3e097593	0.13423757
5	0x3e4ea8cd	0.2018158
6	0xbe2306d7	-0.15920578
7	0x3d9e5843	0.07731678
8	0x3c4332d4	0.011913974
9	0xbdc7ec61	-0.097618826
10	0xbe8d0cc3	-0.275488
11	0xbe0e6e8b	-0.13909356
12	0x3d9ac08a	0.07556255
13	0x3d9f0ad1	0.07765735
14	0xbd532e9d	-0.051558126
15	0x3d8666fb	0.06562611
16	0xbd0fd17e	-0.035111897
17	0xbd2679d5	-0.04064353
18	0xbc1aaaba	-0.009440118
19	0xbe966f5e	-0.2938184
20	0xbdfb4d5e	-0.12270616
21	0xbe6e2a71	-0.23258378
22	0x3d129671	0.035788003
23	0xbe52e9d4	-0.20597011
24	0xbde817e8	-0.11332685
25	0x3d1a7e57	0.037718143
26	0xbeaa2230	-0.33229208
27	0xbbdd9834	-0.006762529
28	0x3e3fafae	0.1871936
29	0x3cdad73e	0.026713964
30	0x3c80c607	0.015719427
31	0x3dd77723	0.105207704
32	0x3d8b53d3	0.068030976
33	0xbbb3ec43	-0.005490811
34	0xbdf8b89e	-0.12144588
35	0xbd47f5e7	-0.048818495
36	0xbda0be0f	-0.07848751
37	0x3e5592b8	0.2085675
38	0xbd226153	-0.039643597
39	0x3d1fb10f	0.038987216
40	0x3d825dfc	0.06365582
41	0x3d80ea90	0.06294739
42	0x3e3bd650	0.18343472
43	0xbdf8979e	-0.12138294
44	0x3d79adcf	0.060956772
45	0xbd97f7a0	-0.074202776
46	0xbc752e3d	-0.014964637
47	0xbd300241	-0.0429709
48	0xbd4ed54b	-0.05049638
49	0x3d06fb9d	0.0329548
50	0x3df49293	0.11942019
51	0xbdacb331	-0.084326155
52	0x3ded68ac	0.1159223
53	0x3d64eea3	0.055891644
54	0xbe092036	-0.13391194
55	0x3e274f87	0.16338931
56	0xbeb8648d	-0.36014214
57	0xbdcb83ab	-0.09937223
58	0xbe0ba07f	-0.13635443
59	0xbe8e659c	-0.27811897
60	0x3db891ab	0.09012159
61	0x3ca1f223	0.01976878
62	0x3e90ed72	0.28306156
63	0xbc601b65	-0.013678406
64	0x3dc6286e	0.0967568
65	0x3dc423e0	0.09577155
66	0x3e8a78e9	0.27045372
67	0x3e933af7	0.28755924
68	0x3d82f09f	0.06393551
69	0x3d1e0680	0.038580418
70	0x3e14eb60	0.14542913
71	0x3e8e56d0	0.27800608
72	0x3e627b83	0.22117428
73	0x3dd663a5	0.104682244
74	0x3f0eaf2f	0.5573606
75	0x3da95269	0.082676716
76	0xbe07d9d3	-0.13266687
77	0xbd348f3d	-0.044081915
78	0xbd1715f8	-0.036886185
79	0xbe510e6c	-0.20415658
80	0xbd50bf0a	-0.05096344
81	0x3dec2811	0.115310796
82	0xbdb98b9d	-0.09059832
83	0xbe2281d2	-0.15869835
84	0xbdce0fda	-0.10061617
85	0xbb7be16f	-0.003843393
86	0xbd34a213	-0.04409988
87	0xbd9e2be0	-0.07723212
88	0x3db3964d	0.08768902
89	0xbdc5d107	-0.096590094
90	0x3ce37bec	0.027769051
91	0x3ea0b342	0.31386763
92	0xbe8a9431	-0.27066186
93	0xbe36f88c	-0.1786825
94	0x3dc91f96	0.09820478
95	0xbb933109	-0.0044919294
96	0xbee29713	-0.44255885
97	0x3d3ead8c	0.046552226
98	0x3df5f4df	0.12009596
99	0xbd85430f	-0.06506931
100	0x3dadd918	0.08488673
101	0xbc1a9361	-0.009434552
102	0xbdf8919a	-0.12137146
103	0x3e7669d2	0.24063805
104	0x3d6de726	0.05808177
105	0x3e30e346	0.17274198
106	0xbe96ed20	-0.29477787
107	0xbe55f894	-0.20895606
108	0xbe369f23	-0.17834143
109	0xbe91f661	-0.28508285
110	0x3dc82788	0.09773165
111	0x3e4256d5	0.18978436
112	0x3e5dd553	0.21663408
113	0xbd4f5437	-0.050617423
114	0x3c3add91	0.011405365
115	0xbb0c9fab	-0.0021457474
116	0x3e2ba489	0.16761984
117	0xbd2f5b84	-0.042811885
118	0xbd979152	-0.074007645
119	0xbda4a578	-0.08039373
120	0x3c0d2596	0.008614918
121	0x3cfc8182	0.030823473
122	0xbea22986	-0.31672305
123	0x3dbb594b	0.09147891
124	0xbed077d3	-0.4071642
125	0xbead5db1	-0.33860543
126	0x3dc0b842	0.094101444
127	0xbe0278dc	-0.12741417
128	0xbe97473c	-0.29546535
129	0x3e3bc6a8	0.183375
130	0xbe2e98fa	-0.17050543
131	0x3e56fde2	0.20995286
132	0x3e800f57	0.25011703
133	0xbe7e14ed	-0.2481267
134	0x3dbed34b	0.09317645
135	0x3e9000fd	0.28125754
136	0xb9382cfa	-0.00017564362
137	0xbcb1bc1c	-0.021696143
138	0x3e434848	0.19070542
139	0x3da014f2	0.07816495
140	0xbe2ea30c	-0.17054385
141	0x3d202b1a	0.039103605
142	0xbe14d07b	-0.14532654
143	0x3e250d8f	0.16118453
144	0x3e8e4959	0.27790335
145	0x3e811187	0.25208685
146	0x3e61fe03	0.22069554
147	0xbe6f354a	-0.23360172
148	0xbd99475b	-0.07484313
149	0xbdcc842c	-0.09986147
150	0xbdf19d78	-0.11797613
151	0xbcc98b51	-0.024602564
152	0xbc71ad92	-0.014750855
153	0x3dec9f56	0.115538284
154	0x3db8f506	0.090311095
155	0xbcd94abe	-0.026524898
156	0xbeb6132e	-0.35561508
157	0xbe1df3f4	-0.15425092
158	0xbdad5490	-0.08463395
159	0xbe6f8e39	-0.23394097
160	0x3e44cb1f	0.1921811
161	0x3dca3e1f	0.0987513
162	0xbdcdc756	-0.10047786
163	0x3eabc140	0.33545876
164	0x3eacb2cd	0.33730164
165	0xbd1d1134	-0.038346484
166	0x3e091843	0.13388161
167	0xbe3bd16a	-0.18341604
168	0x3e9ddbf1	0.30831864
169	0x3d32e626	0.043676518
170	0x3e095b1b	0.1341366
171	0xbe9fd1e7	-0.3121483
172	0x3e45bdda	0.19310704
173	0xbdf43112	-0.11923422
174	0x3de3add2	0.11117138
175	0x3d86e3c6	0.06586413
176	0x3c870ead	0.01648649
177	0xbd9be11e	-0.07611297
178	0x3dd7c437	0.10535472
179	0xbd174c4e	-0.036938004
180	0x3cc81ae0	0.024426877
181	0x3d9c0a35	0.07619134
182	0xbd295ac4	-0.041346326
183	0xbe2b6481	-0.16737558
184	0x3e0c3446	0.13691816
185	0x3de44886	0.11146645
186	0xbda33fe0	-0.079711676
187	0xbd9c50e9	-0.0763262
188	0x3e61d582	0.22054103
189	0x3e7878b6	0.24264798
190	0xbe415276	-0.18879113
191	0x3d9d74fe	0.0768833
192	0x3d27f205	0.041002292
193	0x3dafa722	0.085768
194	0xbbe8b97c	-0.0071021896
195	0x3e80c44f	0.25149772
196	0xbd84e90e	-0.06489764
197	0xbe8997e1	-0.26873687
198	0xbdcae5b1	-0.099070914
199	0xbdfc9d6d	-0.12334714
200	0x3ea790c7	0.32727644
201	0xbe3dab69	-0.18522419
202	0x3dabb2d3	0.083837174
203	0xbed31774	-0.4122883
204	0xbc084f3b	-0.008319671
205	0x3da238f6	0.07921021
206	0x3b1c6ece	0.0023869756
207	0x3da4b77c	0.08042809
208	0x3e602548	0.21889222
209	0x3e8e8e65	0.27843013
210	0x3e45c6ff	0.19314192
211	0x3cc74a63	0.024327463
212	0x3cfe72bf	0.031060575
213	0xbdcf7f7d	-0.10131738
214	0xbe477784	-0.19479185
215	0xbe47de2f	-0.1951835
216	0x3e5cdc67	0.21568452
217	0x3e92d068	0.28674626
218	0x3ba0bbd7	0.0049052048
219	0xbd8b2c56	-0.06795566
220	0x3e5e15af	0.21687959
221	0x3e117148	0.1420337
222	0xbe558d89	-0.20854773
223	0xbd1d1a2c	-0.038355038
224	0x3d8a8daa	0.067653015
225	0xbcd81855	-0.02637879
226	0xbe51c4af	-0.20485185
227	0xbdb6f8b4	-0.08934155
228	0x3e23d41c	0.15998882
229	0x3e66a38d	0.22523327
230	0x3cd06172	0.02543709
231	0xbde47614	-0.11155334
232	0x3db65b33	0.089041136
233	0xbd47f9d9	-0.048822258
234	0xbdffa4a2	-0.12482573
235	0x3d4a41fc	0.049379334
236	0x3c543a8c	0.012953412
237	0x3d4ef8c5	0.050530214
238	0xbada7091	-0.0016665627
239	0xbe096c1b	-0.13420145
240	0x3ebb6eb8	0.3660791
241	0xbdf5a2a5	-0.119939126
242	0xbe15fe9e	-0.1464791
243	0x3bee1a96	0.007266353
244	0x3d914211	0.07092679
245	0xbd90655c	-0.07050583
246	0x3e713734	0.23556215
247	0xbe5812ca	-0.21100917
248	0xbe50a56c	-0.20375603
249	0xbdbfbf3e	-0.093626484
250	0xbe75a47e	-0.2398853
251	0xbea9c156	-0.33155316
252	0xbdf82439	-0.12116284
253	0x3e8b6c4d	0.27231064
254	0x3da321e5	0.07965449
255	0xbcb488ab	-0.022037825

context_transformer_0/ffn_layer_3/intermediate_dense/einsum/Einsum;context_transformer_0/ffn_layer_3/intermediate_dense/Relu;context_transformer_0/ffn_layer_3/intermediate_dense/add f4 [32]
0	0xbd93e0c9	-0.07220609
1	0xbd9c169e	-0.076215014
2	0x3ca4ded7	0.02012579
3	0xbdb26a0e	-0.087116346
4	0xbe03c331	-0.12867428
5	0xbdce72eb	-0.100805126
6	0xbdde59bb	-0.108569585
7	0xbdbcf67b	-0.092267
8	0xbe4dfa30	-0.2011497
9	0x3c47229d	0.012154249
10	0xbe3bcd8a	-0.18340126
11	0xbcfbb248	-0.03072466
12	0xbdf113ac	-0.1177133
13	0x3ca0b332	0.019616697
14	0xbe029b63	-0.12754588
15	0xbe5da725	-0.21645792
16	0x3d1d9872	0.03847546
17	0xbdfa999d	-0.12236331
18	0xbd6b9bf3	-0.05752177
19	0xbdbd60c2	-0.09246971
20	0xbe8d8fb5	-0.27648702
21	0xbe0bba10	-0.13645196
22	0xbda6e4c9	-0.08149106
23	0xbe24517e	-0.16046712
24	0xbd9d7787	-0.07688814
25	0x3c1b5238	0.009480052
26	0xbe148c3a	-0.14506617
27	0x3dad1706	0.08451657
28	0xbe6ff745	-0.2343417
29	0xbe41c99c	-0.18924564
30	0xbe3fe05f	-0.18737935
31	0xbe0dea71	-0.13858964
